best_model_parameters.pth (torch, 1631 bytes, 1 tensors)

linear.weight f4 [1, 123]
000000 ea 9a b2 bf 85 24 d3 be c0 2a 42 3e 50 a5 f9 3e
       -1.3953526 -0.412388 0.1896162 0.48758936
000010 0f 81 f7 3e ef 45 61 3e 4c 35 3a be b2 fe e9 3e
       0.4834065 0.21999334 -0.18184394 0.4570213
000020 9d 35 25 3f aa d2 10 bd 2d d0 fe bd 47 c1 2c be
       0.6453493 -0.035357155 -0.1244205 -0.16870604
000030 a0 9d 67 bd 65 fc 92 be 6a d5 c0 bd 94 75 c3 bd
       -0.056546807 -0.28708187 -0.094157055 -0.095439106
000040 7d f6 ae bd 37 03 70 bd 07 2e b2 be 98 9b b5 bd
       -0.08543108 -0.058596816 -0.3480074 -0.08867568
000050 ef ad 14 3d be a6 92 be 36 d9 0c 3f c2 15 11 bd
       0.03629869 -0.2864284 0.5501894 -0.03542114
000060 20 39 0c bd e4 32 a4 be 22 29 08 bf db 0d 89 3e
       -0.034234166 -0.32070076 -0.53187764 0.26768383
000070 58 bf 15 bd 1a 50 50 be 35 00 26 bd 88 79 32 3f
       -0.036559433 -0.20343056 -0.04052754 0.6971669
000080 0d 64 66 be 09 a7 18 be 2b 3a 9f bf c3 52 84 be
       -0.22499104 -0.14907469 -1.2439626 -0.25844392
000090 cd 0b d1 bd fd 89 1b 3b 34 21 6f 3f ba 11 93 3f
       -0.10207329 0.002373337 0.9341004 1.1489785
0000a0 4d b7 ef be 20 53 32 bf 42 c0 03 bf b5 29 1f bd
       -0.46819535 -0.6965809 -0.5146524 -0.038858134
0000b0 0d 27 9c be a3 be 90 3e ed d9 45 3f ac 07 1c 3e
       -0.30498543 0.28270444 0.77285653 0.15237302
0000c0 0b e3 28 bf 98 b5 cc 3e 3c e2 5f 3f 66 bd 23 3f
       -0.6597144 0.39982295 0.8745458 0.63960874
0000d0 c8 61 0c bf 48 d9 89 be 61 e0 08 3e 44 91 37 bf
       -0.548367 -0.26923585 0.13366844 -0.7170603
0000e0 34 07 6a 3b 58 24 40 be 3b e9 45 3f ba 7a 51 3d
       0.003570986 -0.18763864 0.77309006 0.05114243
0000f0 86 7d b2 3f 41 28 6a bf a1 fe 26 bd 8b 2f 34 bd
       1.3944557 -0.9146767 -0.040770177 -0.043990653
000100 00 c2 04 bf 9e 58 9c be aa c0 ad 3d 41 a3 07 3e
       -0.5185852 -0.3053636 0.084840134 0.1324587
000110 10 09 ab be aa 41 8f be f1 32 a4 bd 12 d2 38 bf
       -0.33405352 -0.27979785 -0.08017529 -0.7219554
000120 71 e7 c2 3d 38 95 8b bf f7 ec 0f 3f 56 e3 5b bf
       0.095168 -1.0904913 0.56220955 -0.8589376
000130 f6 63 59 3e f6 88 85 bf 4e ed 39 be 7d fd 03 bd
       0.21229538 -1.0432422 -0.18156931 -0.032224167
000140 1d 3c ac 3e 95 6c f0 3e dc 8d 9a 3e 9a 8b 09 3e
       0.33639613 0.46957842 0.30186355 0.1343216
000150 f7 1f 40 3e c3 c5 23 be 25 00 88 3e 16 bf 98 3e
       0.18762194 -0.15993409 0.2656261 0.29833287
000160 4e bb 2d bd 53 2f 47 be b0 4b cd 3d 72 5a 3c be
       -0.042414956 -0.19451647 0.10024202 -0.18393877
000170 ad 30 9f be 13 45 65 be 33 a3 33 3e 50 b1 02 bd
       -0.31091824 -0.22389631 0.17542724 -0.03190738
000180 7f e6 64 3c 1d 61 b5 3e 2e 28 ab 3e 20 09 56 bd
       0.01397097 0.35425654 0.33429092 -0.052254796
000190 af 7f 20 3d dd f2 2a be ca d4 e3 be 33 c4 4e bd
       0.03918427 -0.16694207 -0.44498283 -0.05048008
0001a0 30 b5 ee 3d b0 2e 1a 3e 1c d8 74 be cf d5 cb 3c
       0.116556525 0.15056872 -0.23910564 0.024882225
0001b0 49 ef d6 bd 93 b6 9e 3c 3b 0f cd bc fd d5 c8 be
       -0.10494859 0.019374168 -0.025031677 -0.3922576
0001c0 d9 19 17 3d c5 f3 c3 bc 3c 9d 9e bd e5 7a 77 3d
       0.036889885 -0.02391995 -0.07744834 0.060419936
0001d0 87 ff 88 bd 2c b7 9c 3d 68 b0 f3 bd 07 ec cd bd
       -0.06689363 0.07652125 -0.11898881 -0.10054784
0001e0 0e ec 09 be 9b 31 f1 3c b9 60 db 3c
       -0.13468954 0.029442599 0.02677952
